Spam_Prediction/models/spam_prediction_model_0.pth (torch, 126392 bytes, 2 tensors)

linear.weight f4 [2, 15585]
-0.26431966 -0.1545686 -0.43881738 -0.09856235 -0.14023937 -0.0037086396 -0.052005965 -0.067471445
-0.5444758 -0.95670253 0.0005328609 0.24755578 -0.731175 0.15318243 0.14865784 -0.011186473
0.03887499 -0.004141047 0.2099735 0.22035202 0.21002239 0.19609903 0.21045958 0.21902679
0.16370738 0.3828161 0.21145111 0.20889667 0.21446905 0.19200614 0.22094716 0.21593899
0.21989715 0.21504606 0.21111205 0.020679045 0.20120242 0.268598 0.21458869 0.2111868
-0.24583475 0.21750407 -0.008393683 -0.09247253 0.34572154 0.36977628 -0.039619982 -0.042810787
0.09785725 -0.73722565 0.03806748 -0.009066058 -0.012115262 -1.1085848 -0.0036640044 0.21060576
0.9479497 0.17827578 0.21355668 0.20159638 0.41119406 0.017283576 0.21468098 0.1811993
0.18086962 0.17674626 0.1850588 0.17366745 0.17363784 1.4041415 0.029955667 0.20995723
0.21499567 0.040472947 0.21371256 0.040816687 0.09406282 -0.18725958 -0.05302829 0.0011052743
0.27091357 0.693267 -0.026046578 -0.039731093 0.9440975 0.8189299 0.6874826 0.2501117
0.7665807 -0.01714947 -0.009288161 -0.0130238775 0.21520887 -0.14067592 -0.19205074 0.055814415
-0.038383164 0.011406414 -0.10614013 -0.13296792 0.17883417 -0.45977053 -0.15014881 -0.14843446
-0.014423062 0.27472857 -0.021406831 -0.19934772 0.081822045 -0.07687294 -0.0066038272 -0.029408729
-0.02633806 -0.10746852 0.63857204 0.03505367 -0.051872015 -0.06511456 -0.06151756 0.32872224
-0.058869086 -0.16802739 0.6408342 -0.063494146 -0.06356436 -0.06273935 -0.24753289 -0.29386124
0.6206613 -0.030485636 -0.16505092 -0.14153782 -0.34412837 0.093804546 -0.061238486 -0.014080228
-0.12831993 -0.09117794 -0.7056035 -0.0074680354 0.21531105 -0.034878667 -0.34577492 -0.015472002
-0.018321874 -0.55961776 -0.15604475 -0.14390999 -0.002295024 0.63104796 0.24388972 -0.21869752
-0.023485456 -0.101468205 -0.0024520212 -0.056929685 0.62923 -0.0067769233 0.12552752 -0.1831948
0.045419384 0.13061239 -0.159369 -0.01665112 -0.01999408 -0.07440724 -0.1807609 0.0011106333
-0.056606166 -0.036654565 -0.19874367 -0.05210619 -0.0012971325 -0.0078166425 0.009911668 -0.008512807
-0.22256258 -0.002913033 0.00043051218 -0.013310933 0.13685116 -0.014309715 -0.13727415 -0.0086224
0.07353054 -0.0015602544 -0.009860931 -0.0071773236 -0.007890877 -0.0049128043 -0.007184795 -0.0081568165
0.05394367 -0.045063935 -0.0065627443 -0.20568742 -0.4694801 -0.006248028 -0.0038439943 0.18585016
-0.058718033 -0.17934845 0.8642635 -0.030147618 -0.15055731 -0.18906398 -0.043888703 -0.15126736
-0.0075453524 -0.0022292102 -0.25111273 -0.17156292 -0.30537412 -0.56434184 0.27229518 0.0013443471
-0.0052456316 -0.008478799 -0.34292978 -0.009455337 -0.3679364 -0.0005577879 -0.010046656 -0.4538396
-0.09920722 -0.0010433415 0.6216617 0.17910583 -0.42062473 -0.014310022 -0.28635246 0.018110128
-0.39205214 -0.577825 -0.08963588 -0.2408029 -0.0064828177 -0.24268915 -0.020404542 -0.5670716
-0.0028036302 -0.01001551 -0.0076948116 -0.056501724 -0.010637462 -0.01701898 0.0017713411 -0.10350929
-0.08627749 -0.19058314 -0.020625962 -0.015053869 -0.47607344 0.20950077 -0.03820471 -0.057799667
00000000: e854 87be 3b47 1ebe acac e0be 0fdb c9bd
00000010: e99a 0fbe a60c 73bb 3504 55bd 782e 8abd
00000020: c462 0bbf 75ea 74bf b1af 0b3a 437f 7d3e
00000030: 492e 3bbf dbdb 1c3e c339 183e 7847 37bc
00000040: 623b 1f3d 9fb1 87bb 4b03 573e f6a3 613e
00000050: 1c10 573e 2fce 483e b782 573e 8f48 603e
00000060: e8a2 273e 7900 c43e a486 583e 02e9 553e
00000070: c69d 5b3e 429d 443e f93f 623e 1c1f 5d3e
00000080: b82c 613e 0935 5c3e c22d 583e 1a67 a93c
00000090: 0208 4e3e ad85 893e 23bd 5b3e 5a41 583e
000000a0: 1bbc 7bbe 63b9 5e3e a885 09bc 3d62 bdbd
000000b0: 6a02 b13e 5153 bd3e 9048 22bd 5d5a 2fbd
000000c0: 6269 c83d d2ba 3cbf a5ec 1b3d ce89 14bc
000000d0: 187f 46bc 1be6 8dbf cb1f 70bb 09a9 573e
000000e0: d5ac 723f ed8d 363e 9aae 5a3e 486f 4e3e
000000f0: 0788 d23e 4996 8d3c 55d5 5b3e 4f8c 393e
00000100: e335 393e f9fc 343e 0e80 3d3e e1d5 313e
00000110: 1ece 313e e9ba b33f 9665 f53c 07ff 563e
00000120: d327 5c3e f6c6 253d 77d7 5a3e 662f 273d
00000130: 02a4 c03d fac0 3fbe 3134 59bd dade 903a
00000140: 2fb5 8a3e f279 313f a25f d5bc 12bd 22bd
00000150: 60b0 713f 64a5 513f dcfe 2f3f a40e 803e
00000160: a23e 443f 0c7d 8cbc 5f2d 18bc 1a62 55bc
00000170: b75f 5c3e 590d 10be f3a8 44be a89d 643d
00000180: aa37 1dbd f8e1 3a3c ff5f d9bd be28 08be
00000190: 4e20 373e 0b67 ebbe 9cc0 19be 34ff 17be
000001a0: b54e 6cbc 39a9 8c3e 615d afbc cf21 4cbe
000001b0: 5192 a73d 8f6f 9dbd eb64 d8bb 93ea f0bc
000001c0: eac2 d7bc 7518 dcbd 7579 233f 7094 0f3d
000001d0: c077 54bd c85a 85bd d6f9 7bbd 484e a83e
000001e0: b620 71bd 5f0f 2cbe b60d 243f 3809 82bd
000001f0: 082e 82bd 7d7d 80bd 4379 7dbe fb74 96be
00000200: a9e3 1e3f 03bd f9bc 1c03 29be 4aef 10be
00000210: 9831 b0be 991c c03d 35d5 7abd c2b0 66bc
00000220: 4d66 03be 80bb babd 6ea2 34bf 6cb6 f4bb
00000230: 807a 5c3e efdc 0ebd 6909 b1be 487e 7dbc
00000240: c117 96bc 1c43 0fbf 32ca 1fbe 245d 13be
00000250: 1d68 16bb 5c8c 213f 3abe 793e 3ef2 5fbe
00000260: 9264 c0bc 90ce cfbd 17b2 20bb 1a2f 69bd
00000270: 3815 213f f410 debb 498a 003e 6b97 3bbe
00000280: ad09 3a3d 41bf 053e a131 23be ee67 88bc
00000290: a0ca a3bc d362 98bd 6319 39be ab92 913a
000002a0: dedb 67bd 1923 16bd 7683 4bbe 4d6d 55bd
000002b0: 8b04 aaba 6011 00bc 8c64 223c 4d79 0bbc
000002c0: 72e7 63be 95e8 3ebb 5eb6 e139 1916 5abc
000002d0: b622 0c3e 4b73 6abc 9891 0cbe f844 0dbc
000002e0: 2e97 963d 7381 ccba be8f 21bc c12f ebbb
000002f0: bd48 01bc 97fb a0bb 6e6e ebbb 2ba4 05bc
00000300: 0af4 5c3d f694 38bd 4a0c d7bb b99f 52be
00000310: b25f f0be 42bc ccbb 86eb 7bbb 814f 3e3e
00000320: 5282 70bd 1fa7 37be 5f40 5d3f 23f8 f6bc
00000330: b22b 1abe fd99 41be a4c4 33bd d5e5 1abe
00000340: 013f f7bb f117 12bb d991 80be 31ae 2fbe
00000350: ff59 9cbe b578 10bf 466a 8b3e ce34 b03a
00000360: 8ce3 abbb a9ea 0abc 7e94 afbe 8fea 1abc
00000370: 2962 bcbe 8338 12ba bb9a 24bc aa5d e8be
00000380: 282d cbbd bbc0 88ba 3925 1f3f 8567 373e
00000390: 205c d7be 9574 6abc ca9c 92be b15b 943c
000003a0: 0fbb c8be 57ec 13bf 0493 b7bd 0995 76be
000003b0: d16d d4bb 8183 78be 6d27 a7bc 9b2b 11bf
000003c0: 1cbd 37bb 1818 24bc c224 fcbb 5a6e 67bd
000003d0: c048 2ebc 636b 8bbc 582c e83a aefc d3bd
000003e0: 41b2 b0bd 3a28 43be c7f7 a8bc 81a4 76bc
000003f0: e6bf f3be 5f87 563e 8b7c 1cbd 58bf 6cbd

linear.bias f4 [2]
-2.8458276 2.8604972
00000000: 0a22 36c0 6312 3740
